best_model.pth (torch, 590562 bytes, 41 tensors)

feature_extractor.pos_embed f4 [1, 1, 64]
0	0x3d2dbb6d	0.04241507
1	0x3c577d37	0.013152412
2	0x3c122bd9	0.008921587
3	0x3ce470f3	0.02788589
4	0xbcdf88dd	-0.027286941
5	0xbc913c26	-0.017728876
6	0xbd19a9c0	-0.0375154
7	0xbcb4681f	-0.022022305
8	0x3d0a7c23	0.033809792
9	0xbd8d7ff8	-0.06909174
10	0x3bfa7f1a	0.007644546
11	0xbd155f47	-0.036467817
12	0xbcf3cf01	-0.029761793
13	0xbc23ffb7	-0.010009698
14	0xbc9df291	-0.019280704
15	0xbcf32559	-0.029680895
16	0xbcf24ac9	-0.029576676
17	0xbd160dea	-0.036634363
18	0x3c40a186	0.01175726
19	0x3c14b1af	0.009075566
20	0x3be12c4b	0.006871735
21	0xbd066cd2	-0.032818623
22	0x3c22e254	0.009941656
23	0xbd36d688	-0.044638187
24	0x39d5c1c8	0.00040770904
25	0x3c8aaf50	0.016929299
26	0xba0d53d4	-0.00053912145
27	0xbcd8c6ae	-0.026461925
28	0xbb5138ad	-0.003192465
29	0xbc90d490	-0.017679483
30	0x3c9942cd	0.01870861
31	0x3c9ea944	0.019367822
32	0xbc37cba9	-0.01121799
33	0x3c2e12cf	0.0106246015
34	0xbbc89253	-0.006120959
35	0x3c95b6a0	0.018275559
36	0x3d374dee	0.044752054
37	0xbd53f0be	-0.05174326
38	0xbbcb282d	-0.0061998577
39	0x3b06f036	0.0020589954
40	0xbca0c539	-0.019625293
41	0xbcfe36c6	-0.031031977
42	0x3ca0fcd5	0.01965181
43	0x3d19aa00	0.03751564
44	0x3d5db368	0.054126173
45	0xbbb1763a	-0.005415705
46	0xbc9fb639	-0.01949607
47	0x3c2a4e0a	0.0103945825
48	0xbc318b83	-0.010836485
49	0x3c1daaba	0.009623224
50	0x3d08a589	0.03336099
51	0x3b0b635c	0.002126894
52	0x3cdfeee6	0.027335595
53	0x3d046039	0.032318328
54	0xbcba2bd5	-0.022725979
55	0x3c4f6274	0.01265775
56	0xbc80d6f2	-0.015727494
57	0x3ce7a647	0.02827753
58	0x3ccb5d7f	0.024824856
59	0xbcdd9d81	-0.027052643
60	0x3c9474cb	0.018122097
61	0x3d169ad8	0.036768764
62	0xbd5992d0	-0.053118527
63	0xbc22c89b	-0.009935523

feature_extractor.patch_embed.proj.weight f4 [64, 102, 3, 3]
0	0x3c0f3116	0.00873973
1	0xbbbeed5b	-0.005826635
2	0xbc9bc578	-0.019015059
3	0x3cb42c6b	0.021993836
4	0xbc2bda52	-0.010489063
5	0xbb4323c0	-0.0029775947
6	0x3b6502a8	0.003494421
7	0xbc1c37bb	-0.009534772
8	0xbc474e2f	-0.0121646365
9	0x3c077955	0.008268674
10	0xbc02fb2a	-0.0079944525
11	0xbcbb79a9	-0.02288516
12	0x3c663a10	0.014051929
13	0x3cc453eb	0.023965796
14	0xbc13a79f	-0.009012132
15	0x3ca0c7f0	0.019626588
16	0x3ccb38fe	0.02480745
17	0x3bba4dd8	0.005685549
18	0x3998af97	0.00029122524
19	0xbc0f73eb	-0.008755664
20	0xba0595fc	-0.0005095897
21	0xbce6f467	-0.028192712
22	0xbbef88b0	-0.0073099956
23	0xbba40fde	-0.0050067743
24	0x3b40fab7	0.0029446313
25	0x3cd0085e	0.025394615
26	0x3ced30b1	0.028953882
27	0x3bfd304a	0.007726704
28	0xbcc41376	-0.023935061
29	0x3c1dc5eb	0.009629707
30	0x3bf30057	0.007415812
31	0x3ccc32d1	0.024926575
32	0xbbb13242	-0.0054076025
33	0x3c927788	0.017879263
34	0x3bab1d61	0.005222008
35	0xbcdad2a8	-0.026711777
36	0x3aabf432	0.001311904
37	0x3c8d3433	0.017236805
38	0xbbad97ea	-0.0052976506
39	0x3c658c8d	0.014010561
40	0xbc66f138	-0.014095597
41	0xbc2cdcf5	-0.010550727
42	0xb8256fa1	-3.9443028e-05
43	0x3ce78c04	0.028265007
44	0x3880fdbc	6.150777e-05
45	0x3bcb2f9c	0.006200744
46	0x3cdd987e	0.027050253
47	0x3ba67344	0.0050796587
48	0xb9c2b999	-0.00037140845
49	0x3caae638	0.02086173
50	0xba371a43	-0.00069848093
51	0x3a82db4b	0.0009983567
52	0x3d0e45cc	0.034734532
53	0xbc875574	-0.01652024
54	0x3cf48930	0.029850572
55	0xbc4f3237	-0.0126462495
56	0x3d0693f6	0.03285595
57	0x3c92b4e2	0.017908517
58	0x3b854a9b	0.0040677316
59	0x3c16427e	0.009171126
60	0x3c785956	0.015158018
61	0x3cd5ea98	0.02611284
62	0xbccc507d	-0.024940724
63	0xbc488b47	-0.012240238
64	0x3c15c86e	0.009142024
65	0xbc361dc7	-0.011115498
66	0x3cf3b083	0.029747253
67	0x3cb43203	0.021996504
68	0xbb35384f	-0.002765197
69	0xba588f61	-0.0008261111
70	0x3c6233e6	0.013806319
71	0xbc5194aa	-0.012791792
72	0xbc5255f9	-0.01283788
73	0xbcd1fda2	-0.025633637
74	0x3c5bc8ba	0.013414556
75	0x3cdd0d82	0.02698398
76	0xbc7d698f	-0.015467062
77	0x3c65a6da	0.014016831
78	0xbc20483c	-0.009782847
79	0xbc6b10db	-0.01434728
80	0x3cd20277	0.025635941
81	0xbaa355a1	-0.0012461432
82	0x3c518c3c	0.012789782
83	0xbb32c581	-0.0027278366
84	0xbc178678	-0.009248368
85	0xbc2fbb8f	-0.01072587
86	0xbc0df27c	-0.00866377
87	0xbb8bf8eb	-0.0042716167
88	0x3c77a3ff	0.015114783
89	0x3c0e632f	0.008690639
90	0x3c8dd609	0.017313974
91	0x3c4a8f4a	0.012363264
92	0x3c90b5e5	0.01766486
93	0x3b3f6c6a	0.0029208907
94	0x3d0eb699	0.034842107
95	0xbbf05e9e	-0.007335498
96	0xbbb4d173	-0.0055181324
97	0xbbf5821f	-0.0074923183
98	0x3cac2c79	0.0210173
99	0xbc82552e	-0.015909757
100	0x3c9c7fdb	0.019103935
101	0xbcda68bc	-0.02666127
102	0xb8ffe96f	-0.00012202828
103	0x3c7ebc10	0.015547767
104	0xbc3b8ab2	-0.011446642
105	0x3c0901b3	0.0083622215
106	0x3ca727d6	0.020404737
107	0xbb8627ff	-0.0040941234
108	0x3a80d7d3	0.0009829946
109	0x3c2bfde3	0.010497543
110	0x3d076c63	0.03306235
111	0x3b38644e	0.0028135958
112	0x3c7dbeda	0.015487397
113	0xbbe0020a	-0.0068361806
114	0xbc209638	-0.00980144
115	0x3ce6c73f	0.02817118
116	0x3ae78295	0.0017662818
117	0x3cd9fb6d	0.026609147
118	0xbcc19443	-0.023630267
119	0x3c30e7eb	0.010797481
120	0x3aed5660	0.0018107407
121	0x3cf947f7	0.030429823
122	0xbc1fab73	-0.0097454665
123	0x3cfdd6fe	0.030986305
124	0xbc7d5f9b	-0.015464689
125	0xbcc0bb12	-0.023526702
126	0x3c312817	0.010812781
127	0x3b6f46f8	0.0036510807
128	0xbbcc99e7	-0.0062439325
129	0x3ca38a01	0.019963266
130	0xbc1bbbec	-0.009505253
131	0x3bba1021	0.0056781922
132	0xbc72aa18	-0.014811061
133	0xbc65b84c	-0.014020991
134	0x3cd9d559	0.02659099
135	0x3c6b37d5	0.014356573
136	0x3cd958cd	0.026531601
137	0xbca96555	-0.020678202
138	0xbcd573bf	-0.026056169
139	0xbcaad234	-0.020852186
140	0x3abfb93e	0.001462735
141	0xbc2036f4	-0.009778727
142	0xbc050072	-0.008117782
143	0x3cf1d864	0.029522128
144	0xbc9eda6f	-0.019391267
145	0xbb7f2342	-0.0038930927
146	0x3af85e1b	0.0018948944
147	0x3c987f81	0.018615486
148	0x3bbe4cc1	0.0058074896
149	0xbc07ca23	-0.008287939
150	0xbcd2ec49	-0.025747435
151	0x3bfacfb3	0.007654154
152	0x3ca565b4	0.020190097
153	0x3c60efc9	0.013729044
154	0x3b708d93	0.0036705479
155	0x3ae7e1e5	0.0017691223
156	0x3c5438b6	0.012952974
157	0x3cdcab71	0.026937218
158	0x3b01c908	0.0019803662
159	0x3c8adbb4	0.016950466
160	0xbc5d8bda	-0.013522113
161	0xbbf4b619	-0.007467997
162	0xbcb7e80e	-0.02244952
163	0x3c1fb970	0.009748802
164	0x3b0d4e8d	0.0021561712
165	0x3ced2014	0.02894596
166	0xbcaf7532	-0.021418188
167	0xbc46225b	-0.012093152
168	0xbc44fcaf	-0.012023135
169	0x3c99d9f0	0.018780679
170	0xbcf36da6	-0.02971537
171	0xbb26c4f5	-0.0025446985
172	0xbcdc3d2e	-0.026884641
173	0xbcd92ed4	-0.026511587
174	0x39f43616	0.00046579604
175	0xbcda53b2	-0.026651237
176	0xbcc26604	-0.023730285
177	0x3cf7203d	0.03016674
178	0x3cd008fb	0.025394907
179	0xbc6b5207	-0.014362819
180	0x3bcad754	0.00619022
181	0x3ca28583	0.019839054
182	0xbc4f5763	-0.012655112
183	0x3c8bab07	0.017049326
184	0x3bd91f90	0.006626077
185	0xbb656a4a	-0.003500598
186	0xbb4c299b	-0.0031152728
187	0x3c346e4b	0.011012624
188	0xbd0202a1	-0.03174079
189	0x3b841659	0.0040309844
190	0xbcaecc55	-0.021337667
191	0x3b58c35d	0.003307543
192	0x3c694107	0.014236695
193	0x3cd67979	0.02618097
194	0xbcc53fa2	-0.024078194
195	0x3c737319	0.014858984
196	0xbcf166b6	-0.029467922
197	0xbcd56538	-0.026049241
198	0x3c8ed968	0.017437652
199	0xbc918086	-0.01776148
200	0x3c205158	0.009785019
201	0xbcec849b	-0.028871825
202	0xbcf8c3c3	-0.030366784
203	0x3c8842f8	0.016633496
204	0x3c120bbe	0.008913932
205	0xbcc16317	-0.02360682
206	0x3c96ac40	0.018392682
207	0x3c8b4790	0.017001897
208	0x3c01abc2	0.007914485
209	0x3cdb301d	0.02675634
210	0x3c0c6290	0.008568421
211	0xbcd5c008	-0.026092544
212	0x3bc429eb	0.0059864423
213	0xbcd9049a	-0.026491452
214	0xbb1175ef	-0.0022195538
215	0xbd036ba9	-0.032085095
216	0xbbcb4633	-0.0062034368
217	0x3c9f7946	0.019467007
218	0xbc871f0b	-0.016494295
219	0xbcffecd6	-0.031240862
220	0xbbeb08eb	-0.007172694
221	0x3cb65dde	0.022261556
222	0xbc1ff7f5	-0.009763707
223	0x3cdb6ad2	0.026784334
224	0x3ca24aaa	0.019810993
225	0x3bc4a5aa	0.006001194
226	0xbb52c12b	-0.0032158594
227	0xbcb20487	-0.021730674
228	0x3b1e9d8c	0.0024202792
229	0x3c36a055	0.011146625
230	0xbc93f8a9	-0.018062906
231	0xbc055b1f	-0.008139401
232	0xbcdf0744	-0.027225144
233	0x3c713f22	0.014724525
234	0x3c46ec7a	0.012141341
235	0x3c809274	0.015694834
236	0xbc11d358	-0.008900486
237	0xbcab8af5	-0.020940283
238	0xbcc2ec6d	-0.023794377
239	0xbc793499	-0.015210294
240	0xbbc22d5b	-0.005925817
241	0xbb003eff	-0.0019568799
242	0x3bb3ab3f	0.0054830606
243	0x3bb27029	0.0054454994
244	0x3c6f1edd	0.014594761
245	0xbd0ab860	-0.03386724
246	0x3cc311ea	0.023812253
247	0xbc8fb37e	-0.017541643
248	0xbc669e2c	-0.014075797
249	0x3b960777	0.0045785266
250	0x3c60aeaa	0.013713518
251	0xbc856d81	-0.016287567
252	0x3c9f0640	0.01941216
253	0x3c7df98e	0.015501393
254	0xbca85b7e	-0.02055144
255	0x3c834e90	0.016028672

feature_extractor.patch_embed.proj.bias f4 [64]
0	0x3d188c29	0.037243042
1	0xbd1b85de	-0.037969463
2	0x3cd68125	0.026184628
3	0xbcb4b33e	-0.022058126
4	0x3c72b815	0.014814396
5	0x3d0002f1	0.031252805
6	0x37f45cc8	2.9130271e-05
7	0xbcdffd25	-0.027342388
8	0x3c4f6f2a	0.012660781
9	0xbd1047ce	-0.03522473
10	0xbc396a1b	-0.011316801
11	0x3c72509f	0.014789729
12	0xbd08a37c	-0.033359036
13	0xbd406cd7	-0.046978798
14	0xbd55dece	-0.052214436
15	0xbd0bef93	-0.034164023
16	0xbd1f44c2	-0.038883932
17	0x3a9787d7	0.0011560869
18	0x3c5daddd	0.013530222
19	0x3ca7d727	0.020488335
20	0xbc952e10	-0.01821044
21	0xbcb9e2e0	-0.02269119
22	0x3d5ae7f3	0.05344386
23	0x3bebe28f	0.0071986387
24	0xba8ef0a2	-0.0010905454
25	0xbcab42e7	-0.020905925
26	0x3d2a2e8f	0.041548308
27	0x3ccdcd54	0.025122322
28	0xbc842e9f	-0.016135512
29	0xbc528c9a	-0.012850905
30	0x3cc0b2e2	0.023522798
31	0xbcb1e7a3	-0.021716898
32	0xbcd02634	-0.025408842
33	0x3b255693	0.0025228604
34	0x3c77e99b	0.0151313795
35	0xbc537c58	-0.012908064
36	0x3c7e0077	0.0155030405
37	0xbcfd2202	-0.030900005
38	0x3cc9eec2	0.024649981
39	0x3d1727ed	0.03690331
40	0xbcc5a8a3	-0.024128264
41	0x3b9ce1f3	0.0047876774
42	0x3cd834af	0.026392309
43	0x3d13ef33	0.03611679
44	0x3c422d93	0.011851686
45	0xbd1713fd	-0.036884297
46	0x3cc829e1	0.024434032
47	0x3ce4419f	0.027863322
48	0xbcfb4cd4	-0.030676283
49	0xbc82d664	-0.01597137
50	0x3d38ec08	0.045146972
51	0x3ca11ae5	0.019666145
52	0x3c358d81	0.0110811
53	0x3ccba1f2	0.024857495
54	0xbd13eccb	-0.036114495
55	0x3d38d3c6	0.045123838
56	0xbbeab84b	-0.0071630827
57	0x3caf36f6	0.021388512
58	0x3cb1a280	0.021683931
59	0x3cad5866	0.021160316
60	0x3d18d70b	0.037314456
61	0x3d3e97e9	0.04653159
62	0xbcd8fe03	-0.02648831
63	0x3c9633ee	0.018335309

feature_extractor.blocks.0.norm1.weight f4 [64]
0	0x3f5c65df	0.8609294
1	0x3f62bbfd	0.885681
2	0x3f541432	0.82843316
3	0x3f601772	0.87535775
4	0x3f577123	0.8415701
5	0x3f60c93d	0.87807065
6	0x3f554f94	0.8332455
7	0x3f6d7378	0.92754316
8	0x3f60acae	0.8776349
9	0x3f5e2144	0.8676951
10	0x3f605075	0.8762277
11	0x3f53a6db	0.82676476
12	0x3f58bf98	0.8466735
13	0x3f5a54dc	0.85285735
14	0x3f5b808e	0.85743034
15	0x3f59d622	0.85092366
16	0x3f5bfebe	0.8593558
17	0x3f5fe30f	0.8745584
18	0x3f651463	0.8948423
19	0x3f5d85b2	0.8653213
20	0x3f5f065b	0.8711907
21	0x3f604037	0.87597984
22	0x3f54cd26	0.8312553
23	0x3f5b0645	0.8555644
24	0x3f587a86	0.84561956
25	0x3f5715ce	0.84017646
26	0x3f5b7612	0.85727036
27	0x3f51d22e	0.81961334
28	0x3f58b9cd	0.8465851
29	0x3f5c9939	0.861713
30	0x3f53b8fa	0.82704127
31	0x3f526b8f	0.8219537
32	0x3f5aed1c	0.8551805
33	0x3f5eb9f9	0.8700252
34	0x3f5da671	0.86582094
35	0x3f65c28b	0.89749974
36	0x3f6651f0	0.89968777
37	0x3f5a5d61	0.85298735
38	0x3f4e1f86	0.8051685
39	0x3f609c4a	0.8773848
40	0x3f54e833	0.8316681
41	0x3f525eb7	0.82175773
42	0x3f5d7d8a	0.8651968
43	0x3f62c3be	0.8857993
44	0x3f5dab9a	0.8658997
45	0x3f5c76d4	0.8611882
46	0x3f58949e	0.8460177
47	0x3f5d62b0	0.8647871
48	0x3f5776bd	0.84165555
49	0x3f576431	0.84137255
50	0x3f5efe1e	0.871065
51	0x3f5372b2	0.82596886
52	0x3f58fe92	0.84763443
53	0x3f5ae3f5	0.85504085
54	0x3f586217	0.84524673
55	0x3f5d3e95	0.8642362
56	0x3f5ca6e8	0.8619218
57	0x3f4ead92	0.807336
58	0x3f5ccfc1	0.8625451
59	0x3f5fde02	0.8744813
60	0x3f5a0a43	0.8517191
61	0x3f60aa0b	0.87759465
62	0x3f5ba001	0.8579102
63	0x3f5dfd7c	0.8671491

feature_extractor.blocks.0.norm1.bias f4 [64]
0	0x3bc5054f	0.0060125957
1	0xbc984d01	-0.018591406
2	0xb9230534	-0.0001554683
3	0x3bc781f3	0.006088489
4	0x3c9f162a	0.019419748
5	0xbaa72920	-0.0012753345
6	0xbcf356a4	-0.0297044
7	0xbb01dd92	-0.0019815904
8	0x3cf60a8b	0.030034324
9	0x3a5ee0c0	0.0008502118
10	0xbbb48b30	-0.0055097565
11	0xbcaae844	-0.020862706
12	0x3c7b0d9d	0.01532307
13	0x3c816b7b	0.015798321
14	0x3bb66694	0.0055664275
15	0xbb70f09f	-0.0036764515
16	0xbc9d3357	-0.01918952
17	0x3a77c8fb	0.00094522507
18	0x3c05b538	0.008160882
19	0xbbdc0ea0	-0.0067156106
20	0x3bd82a1d	0.006596817
21	0xbc730060	-0.014831632
22	0xbb05ed6d	-0.0020435706
23	0xbbdcf6a5	-0.0067432695
24	0xb986504e	-0.00025618303
25	0x3b838cec	0.004014602
26	0xbc2b5be2	-0.010458918
27	0xb6c80253	-5.960735e-06
28	0xbc8918fa	-0.016735543
29	0x3ba15123	0.0049230023
30	0xbb8831cb	-0.0041563264
31	0xba1319f3	-0.0005611472
32	0x3c54ccff	0.012988328
33	0x3c4cb744	0.012494866
34	0x3c5d0e97	0.013492248
35	0xbb1bce6a	-0.0023774155
36	0x3cdeb22e	0.027184572
37	0x3c6d313b	0.0144770695
38	0x3a425f27	0.00074146915
39	0xbca8198b	-0.020519992
40	0xbd005170	-0.031327665
41	0xbc23790f	-0.009977593
42	0x3c394e9e	0.011310248
43	0x3c9b3749	0.01894726
44	0x3af3f7e2	0.0018613304
45	0xbb2fdb59	-0.0026833622
46	0x3bd77da3	0.0065762564
47	0xbc2dde63	-0.010612103
48	0xbafb9407	-0.0019193896
49	0xbbbfc3a3	-0.005852179
50	0xbbdbbebc	-0.006706087
51	0xbb841f3b	-0.0040320433
52	0x3c9c6849	0.019092696
53	0x3ca0af1c	0.019614749
54	0xbcc8a715	-0.024493733
55	0x3c36fbad	0.011168403
56	0xbb8f352d	-0.0043703527
57	0xbb9c8cee	-0.0047775423
58	0x3a4ee7ae	0.00078927993
59	0xbc51494b	-0.012773822
60	0x3a8c1a96	0.0010689076
61	0xbaf3d5e4	-0.0018603173
62	0x3c2b3f69	0.01045213
63	0x3c752993	0.014963525

feature_extractor.blocks.0.attn.qkv.weight f4 [192, 64]
0	0x00008990	4.9348e-41
1	0x348132c8	2.406507e-07
2	0x9828acc8	-2.1800723e-24
3	0xb08eaa5b	-1.0380278e-09
4	0xab2bef68	-6.1083647e-13
5	0x324a6eb6	1.178312e-08
6	0x80008944	-4.9242e-41
7	0x000099c5	5.5162e-41
8	0xb3a9c642	-7.9057386e-08
9	0x31218c3a	2.3508293e-09
10	0xb8127f1b	-3.492749e-05
11	0x36eccd1a	7.057225e-06
12	0xb190d1b6	-4.214793e-09
13	0x0213b5ef	1.0852067e-37
14	0xb4ac624c	-3.2109017e-07
15	0x80008a0c	-4.9522e-41
16	0x2f61a969	2.0523817e-10
17	0x1fc3d02d	8.293011e-20
18	0xa8a3d232	-1.8187793e-14
19	0x8000891d	-4.9187e-41
20	0x9da651ab	-4.4024277e-21
21	0xb7c516a1	-2.3494767e-05
22	0x00008995	4.9355e-41
23	0x2d3000f9	1.0004658e-11
24	0x0d0ca73d	4.3342137e-31
25	0xb81332f0	-3.509497e-05
26	0x32c7d795	2.3264684e-08
27	0x2a537abf	1.8783151e-13
28	0xb74d0063	-1.2219042e-05
29	0xa1169f24	-5.10326e-19
30	0x29891a6c	6.0886056e-14
31	0x248d81f5	6.136916e-17
32	0x8000898e	-4.9345e-41
33	0x22accbc1	4.6836426e-18
34	0x29bdd544	8.430282e-14
35	0x800089f2	-4.9485e-41
36	0xb44348c9	-1.818727e-07
37	0x1b3b0ab6	1.5471738e-22
38	0x80008937	-4.9223e-41
39	0x366572f6	3.4190575e-06
40	0x00009496	5.3303e-41
41	0x9a08ef6d	-2.8317547e-23
42	0x800089bf	-4.9414e-41
43	0xb32f4329	-4.0806444e-08
44	0xb1815d1c	-3.7649794e-09
45	0xb1e3407a	-6.6138997e-09
46	0x3581922f	9.653794e-07
47	0xb6bb4ca1	-5.581955e-06
48	0xb427f575	-1.5642384e-07
49	0x1d2eacd7	2.3118064e-21
50	0x800089e2	-4.9463e-41
51	0xb79f3f1e	-1.8983668e-05
52	0x80008986	-4.9334e-41
53	0x8000897e	-4.9323e-41
54	0x80008997	-4.9358e-41
55	0x0000897e	4.9323e-41
56	0x24f383b5	1.0560757e-16
57	0x000089c7	4.9425e-41
58	0x3733d764	1.0719381e-05
59	0x27cf599f	5.755121e-15
60	0x8ca1486f	-2.4849572e-31
61	0xa1936e07	-9.990231e-19
62	0xa7240167	-2.2760332e-15
63	0x2d323d4d	1.013174e-11
64	0x13d59a5f	5.392098e-27
65	0x00008920	4.9191e-41
66	0x2220f2cd	2.1812581e-18
67	0x2f039fc5	1.1971142e-10
68	0x000088fe	4.9144e-41
69	0xb3e9dac2	-1.08897e-07
70	0x32af42aa	2.0402997e-08
71	0x800088db	-4.9094e-41
72	0x36bc5606	5.612851e-06
73	0x0000644c	3.598e-41
74	0x3141eba7	2.821915e-09
75	0xad9aaaa0	-1.7583546e-11
76	0x800089ed	-4.9478e-41
77	0xb0ad3f67	-1.2605427e-09
78	0xb36fdede	-5.584922e-08
79	0xae204c86	-3.6447755e-11
80	0xb053d293	-7.7060597e-10
81	0xb4d3eaf8	-3.9472775e-07
82	0xb2801922	-1.491259e-08
83	0x191acf65	8.003496e-24
84	0x372d77a6	1.0339461e-05
85	0x00008a20	4.955e-41
86	0x37aa23e2	2.0282288e-05
87	0x976802f6	-7.496698e-25
88	0xafeee552	-4.345489e-10
89	0x976cf244	-7.6561495e-25
90	0x2ef6c19e	1.1221178e-10
91	0xb3218ba7	-3.7612747e-08
92	0x1eb2597e	1.8883496e-20
93	0x000089af	4.9392e-41
94	0x3819c202	3.6658726e-05
95	0x800089dd	-4.9456e-41
96	0xb093140b	-1.0701354e-09
97	0xb6d1820c	-6.243825e-06
98	0x800089be	-4.9413e-41
99	0xb675d9a8	-3.6634538e-06
100	0x00008985	4.9333e-41
101	0xb5142279	-5.518446e-07
102	0x20f623e0	4.169776e-19
103	0x269c24f8	1.0834695e-15
104	0x33b45e8c	8.399101e-08
105	0x800088f8	-4.9135e-41
106	0xb4bc7273	-3.5101002e-07
107	0x00008910	4.9169e-41
108	0x25e610e2	3.991008e-16
109	0x29de1b14	9.863478e-14
110	0x00008a01	4.9506e-41
111	0xb7a49f51	-1.9624511e-05
112	0x80008a0c	-4.9522e-41
113	0x00008cba	5.0483e-41
114	0x000089cb	4.9431e-41
115	0x8000a8b0	-6.0514e-41
116	0x36f7f53b	7.389722e-06
117	0xa5b75812	-3.1805118e-16
118	0x37a6d31b	1.9887046e-05
119	0xb7c36222	-2.3291508e-05
120	0x00008925	4.9198e-41
121	0x00008a87	4.9694e-41
122	0x800089ec	-4.9477e-41
123	0xacb4eb13	-5.142006e-12
124	0xabd396de	-1.5034326e-12
125	0x9e0c50c7	-7.428243e-21
126	0x34c594a3	3.6802257e-07
127	0xb781cd84	-1.5473699e-05
128	0x800089f3	-4.9487e-41
129	0xb7480354	-1.1921704e-05
130	0x35b8bbab	1.3763687e-06
131	0x80001ebc	-1.1025e-41
132	0x33748974	5.693569e-08
133	0xb59e4c69	-1.1794156e-06
134	0xb64a8d5f	-3.0182634e-06
135	0x80008937	-4.9223e-41
136	0x8000891e	-4.9188e-41
137	0x07b31b16	2.6948846e-34
138	0x359eef60	1.1841585e-06
139	0x82db7bb6	-3.2250164e-37
140	0x80008928	-4.9202e-41
141	0xb6952350	-4.444657e-06
142	0x2fdeb7be	4.0512121e-10
143	0xb60a3f5f	-2.060049e-06
144	0x2ea22427	7.373329e-11
145	0x2c26d799	2.37097e-12
146	0xb48b21ea	-2.5915443e-07
147	0x000066a5	3.6822e-41
148	0x800088cd	-4.9075e-41
149	0xaefb25e1	-1.1420887e-10
150	0x263ad825	6.4824644e-16
151	0x32105266	8.400638e-09
152	0x9163c35e	-1.7967345e-28
153	0x00008a17	4.9537e-41
154	0xaf22cbe1	-1.4806247e-10
155	0x000088de	4.9099e-41
156	0x232db436	9.41651e-18
157	0xb645ecb3	-2.9493065e-06
158	0x00008a3e	4.9592e-41
159	0x000089a2	4.9373e-41
160	0x800088cf	-4.9078e-41
161	0x8ee28f61	-5.585137e-30
162	0x291d3f31	3.4915813e-14
163	0x36116068	2.16628e-06
164	0x80008a0b	-4.952e-41
165	0x328a337f	1.6088732e-08
166	0x32ec5d44	2.7516428e-08
167	0x2c0795c2	1.9267786e-12
168	0x3782b49c	1.558131e-05
169	0x37993b81	1.826673e-05
170	0x800089ce	-4.9435e-41
171	0xa6d3eb0a	-1.4704774e-15
172	0x3815b0c7	3.5689005e-05
173	0x37f98374	2.9744326e-05
174	0x80008a12	-4.953e-41
175	0x800089e3	-4.9464e-41
176	0x8b20dbfa	-3.098037e-32
177	0x3702d577	7.798305e-06
178	0x954f837e	-4.1907046e-26
179	0x36a01800	4.7711655e-06
180	0xa80b36dd	-7.727947e-15
181	0x0000896d	4.9299e-41
182	0x00008935	4.922e-41
183	0x80008963	-4.9285e-41
184	0x3099736f	1.1165023e-09
185	0x0000899e	4.9368e-41
186	0x236af32b	1.2736658e-17
187	0x800088c0	-4.9057e-41
188	0x00008939	4.9226e-41
189	0x2ce546b1	6.5164198e-12
190	0x00008997	4.9358e-41
191	0x000089b4	4.9399e-41
192	0x311ce132	2.2828996e-09
193	0x268870d1	9.467475e-16
194	0x0000a74a	6.0012e-41
195	0x2191ce2f	9.880159e-19
196	0x2dcb44c7	2.3108971e-11
197	0xaf0bb60f	-1.2706657e-10
198	0x18c1f48c	5.013626e-24
199	0x2d0841c4	7.745308e-12
200	0x800089a0	-4.937e-41
201	0x00008951	4.926e-41
202	0x23b2d778	1.9390053e-17
203	0x000089aa	4.9385e-41
204	0xb47e81fd	-2.3702883e-07
205	0x00008957	4.9268e-41
206	0x2a0abdf9	1.2322772e-13
207	0x31fd0c03	7.3646347e-09
208	0x31ac007b	5.0059135e-09
209	0x36228cff	2.4221952e-06
210	0xa810cc04	-8.037845e-15
211	0x35ddaffc	1.6517001e-06
212	0x80003729	-1.9788e-41
213	0xb6cebbff	-6.161164e-06
214	0xa560c004	-1.949396e-16
215	0xb7873c60	-1.6121368e-05
216	0xa4c7c3a6	-8.6633934e-17
217	0x239cb927	1.6991969e-17
218	0x0000898a	4.934e-41
219	0xb1c2aff0	-5.666145e-09
220	0xb4f0b2f9	-4.4833703e-07
221	0x288b0bb3	1.5437174e-14
222	0x80008965	-4.9288e-41
223	0x34f14f25	4.4947333e-07
224	0x8d24bc63	-5.0763164e-31
225	0x800088c9	-4.9069e-41
226	0xb80f0924	-3.410237e-05
227	0xaeb71f66	-8.327454e-11
228	0x000088fc	4.9141e-41
229	0x380a435e	3.2964504e-05
230	0xac1d862f	-2.2385529e-12
231	0xb1c9c2ff	-5.8720384e-09
232	0x00018b3f	1.41788e-40
233	0x2495f9c5	6.5041576e-17
234	0xb7c3628f	-2.3291706e-05
235	0x233fedaa	1.0404458e-17
236	0x80008a1d	-4.9546e-41
237	0xb0c7abf4	-1.4528028e-09
238	0xb7efc109	-2.858091e-05
239	0x1655fe74	1.7286294e-25
240	0xa85cd820	-1.2259318e-14
241	0x381cd708	3.739356e-05
242	0xb37e25d2	-5.917338e-08
243	0xb3aa4f78	-7.930697e-08
244	0xb7f37668	-2.9022995e-05
245	0xabf2604b	-1.7221861e-12
246	0xb2800926	-1.4905321e-08
247	0x80007eac	-4.5441e-41
248	0x0000894a	4.925e-41
249	0xb5ce9f87	-1.5394625e-06
250	0x9be995a0	-3.864331e-22
251	0x80008a31	-4.9574e-41
252	0x330d7967	3.2939536e-08
253	0x800089d2	-4.944e-41
254	0x2e701ed3	5.459706e-11
255	0x000088ba	4.9048e-41

feature_extractor.blocks.0.attn.qkv.bias f4 [192]
0	0x3756884a	1.2787126e-05
1	0x000089ec	4.9477e-41
2	0x80008908	-4.9158e-41
3	0xb4be8a80	-3.549103e-07
4	0x304303f5	7.094621e-10
5	0xa9a961dd	-7.522084e-14
6	0x26904c09	1.0012617e-15
7	0x0000898e	4.9345e-41
8	0xa39371e2	-1.5986003e-17
9	0xb46f762b	-2.2301599e-07
10	0x31aa8006	4.9622058e-09
11	0xb60a5f53	-2.0619088e-06
12	0x36f84be8	7.3998126e-06
13	0x91f0049b	-3.7868162e-28
14	0x80008960	-4.9281e-41
15	0x0000898e	4.9345e-41
16	0x80008a4f	-4.9616e-41
17	0x80008a5d	-4.9635e-41
18	0x33969815	7.012583e-08
19	0xacee3fe9	-6.7714623e-12
20	0xadc72c01	-2.2643222e-11
21	0x375d7de3	1.3201937e-05
22	0x304676b8	7.220069e-10
23	0x2306faab	7.3172356e-18
24	0x00008a23	4.9554e-41
25	0x37f773d9	2.949864e-05
26	0x9ffb1ed2	-1.0635362e-19
27	0x000089e2	4.9463e-41
28	0xb5b25ecd	-1.3289624e-06
29	0x800088e6	-4.911e-41
30	0x85f9c6d0	-2.348888e-35
31	0xb5f3f171	-1.817518e-06
32	0x00009667	5.3954e-41
33	0x1f09c354	2.917245e-20
34	0x2926354e	3.690564e-14
35	0x80008a04	-4.951e-41
36	0x322963c1	9.859776e-09
37	0x3512235c	5.4440693e-07
38	0xaeac6c6b	-7.840913e-11
39	0x800089f1	-4.9484e-41
40	0x2c9895fb	4.336751e-12
41	0x2c5e51ae	3.1593439e-12
42	0x800089c4	-4.9421e-41
43	0xb70a909e	-8.259112e-06
44	0x372dd933	1.0362174e-05
45	0x0000893a	4.9228e-41
46	0x00008957	4.9268e-41
47	0x8000891c	-4.9186e-41
48	0x2c7125fc	3.4269245e-12
49	0x37fee84d	3.0387333e-05
50	0x000092eb	5.2704e-41
51	0x1263f4a9	7.1930137e-28
52	0x2b0ce5e0	5.0057007e-13
53	0x374e01d6	1.2278984e-05
54	0x9a773ffe	-5.1130095e-23
55	0x360582da	1.989471e-06
56	0x1c9b4bc0	1.0276621e-21
57	0x000089aa	4.9385e-41
58	0xb3487a6d	-4.6677474e-08
59	0x00009e61	5.6816e-41
60	0x08e334a7	1.3674444e-33
61	0x36f6f8c2	7.3603305e-06
62	0x37da5d1a	2.6030979e-05
63	0xab2a9507	-6.060295e-13
64	0x00008911	4.917e-41
65	0x3489d67d	2.56743e-07
66	0x00008912	4.9172e-41
67	0x8000897c	-4.932e-41
68	0x2d5825d6	1.228658e-11
69	0x800030e8	-1.7544e-41
70	0x800088f0	-4.9124e-41
71	0x80008a0e	-4.9525e-41
72	0xad84f416	-1.5115059e-11
73	0x27b53727	5.029739e-15
74	0xb6709b7d	-3.5853293e-06
75	0xaf7ff39f	-2.3278666e-10
76	0xaaa01b17	-2.8440507e-13
77	0x2e618f89	5.1286562e-11
78	0x3536f5de	6.815807e-07
79	0x30ccc80c	1.489981e-09
80	0x80008925	-4.9198e-41
81	0x0000899b	4.9364e-41
82	0xb1e28779	-6.592867e-09
83	0x80008977	-4.9313e-41
84	0x311f57c8	2.3187443e-09
85	0x800089a3	-4.9375e-41
86	0xb7a1f0d6	-1.9304844e-05
87	0x80008919	-4.9181e-41
88	0x32dfbeb0	2.6047331e-08
89	0xa87ae942	-1.39283675e-14
90	0x000094fa	5.3443e-41
91	0xacdcd3fe	-6.276312e-12
92	0x0000897b	4.9319e-41
93	0x0000896e	4.93e-41
94	0x8f7f5639	-1.25890766e-29
95	0x80008a09	-4.9518e-41
96	0xa27e1516	-3.4434582e-18
97	0x80008900	-4.9146e-41
98	0x000088d1	4.908e-41
99	0x00008b7e	5.004e-41
100	0x80008985	-4.9333e-41
101	0x9937a0c1	-9.493342e-24
102	0x00008965	4.9288e-41
103	0xa46a4dc1	-5.0806522e-17
104	0xb3ca6a34	-9.425676e-08
105	0x1bafd4fc	2.908896e-22
106	0xb14a5e13	-2.9448344e-09
107	0xa7fdada0	-7.040985e-15
108	0x372ea34f	1.0409231e-05
109	0xb01a1777	-5.605822e-10
110	0xb539aeae	-6.9172063e-07
111	0x18e0cb31	5.8107814e-24
112	0x800089a8	-4.9382e-41
113	0x34617db3	2.1000487e-07
114	0x967cc0fe	-2.0417295e-25
115	0x000096f9	5.4159e-41
116	0xb10f4fad	-2.085453e-09
117	0xb5bcb5e6	-1.4060031e-06
118	0x800089c8	-4.9427e-41
119	0x3562c562	8.447879e-07
120	0x34a4ed58	3.072007e-07
121	0x800088eb	-4.9117e-41
122	0x2b056340	4.738883e-13
123	0x800088ff	-4.9145e-41
124	0xb7350556	-1.0789683e-05
125	0x9f17860b	-3.208637e-20
126	0x8000898c	-4.9343e-41
127	0x3236b077	1.0633918e-08
128	0xbcad527a	-0.021157492
129	0x3d80d742	0.06291057
130	0xbd0bd208	-0.03413585
131	0xbdf2baf8	-0.11852068
132	0x3d1879fd	0.037225712
133	0xbdadff57	-0.08495968
134	0x3d33ea84	0.043924823
135	0xbcbfcce1	-0.023413124
136	0xbd041a87	-0.03225186
137	0xbc205745	-0.009786432
138	0x3de281f2	0.11059941
139	0xbbdecd02	-0.006799341
140	0x3d2b7634	0.041860774
141	0xbddc45d0	-0.10755503
142	0xbdb4857e	-0.08814524
143	0xbd48623d	-0.048921812
144	0x3d8fff61	0.070311315
145	0xbc847784	-0.01617027
146	0x3d8c5621	0.06852365
147	0x3dac8c20	0.08425164
148	0x3cfce9c8	0.030873194
149	0xbdf8019b	-0.12109681
150	0xbd8ee198	-0.06976622
151	0x3d1fc7d5	0.039008934
152	0xbdcbcd0c	-0.09951219
153	0xbdc2b08c	-0.0950633
154	0x3d23f8c5	0.040032167
155	0xbad4b34d	-0.0016227752
156	0xbd19dde2	-0.03756512
157	0xbd1fa716	-0.038977705
158	0xbdebdc20	-0.11516595
159	0x3b844dc6	0.0040375916
160	0xbdbd628f	-0.09247314
161	0xbcf76d7e	-0.030203577
162	0x3c424be4	0.011858914
163	0x3d142672	0.036169477
164	0xbc20aca1	-0.009806783
165	0x3db3f4cb	0.08786925
166	0xbcbbe981	-0.022938492
167	0x3d9838ab	0.074326836
168	0xbbadcf99	-0.0053042886
169	0xbd9faa1b	-0.07796117
170	0xbdc1de7c	-0.09466264
171	0xbdb92946	-0.090410754
172	0x3e015467	0.12629853
173	0x3c4ec1b5	0.012619426
174	0x3da7c003	0.0819092
175	0xbd3c8a85	-0.04603054
176	0xbdc8b157	-0.0979945
177	0x3b96c54b	0.004601156
178	0x3cd877a8	0.026424244
179	0xbbd28a2b	-0.0064251623
180	0x3d399fc9	0.0453184
181	0x3ae9aa6b	0.0017827278
182	0xbd00e0b1	-0.031464282
183	0xbdc6a0d5	-0.09698645
184	0xbdb31f0a	-0.087461546
185	0xbc665e14	-0.014060516
186	0x3dc57a3a	0.096424535
187	0x3dc0fa8d	0.09422789
188	0xbdaf92f8	-0.08572954
189	0xbd860822	-0.0654452
190	0xbcfec14c	-0.03109803
191	0x3d18c5a5	0.037297864

feature_extractor.blocks.0.attn.proj.weight f4 [64, 64]
0	0xbc143c64	-0.009047601
1	0x3c9ac16e	0.018891063
2	0x3d8314fa	0.06400485
3	0x3dd266f7	0.10273545
4	0x3d844179	0.064578004
5	0x3d4159b7	0.0472047
6	0xbd904f57	-0.07046383
7	0x3c2c016e	0.010498388
8	0x3a4c5812	0.0007795106
9	0x3dad5a89	0.08464534
10	0xbcc483be	-0.0239886
11	0x3b98e4ce	0.0046659475
12	0xbdaea892	-0.08528246
13	0xbd7b9ba7	-0.06142774
14	0x3cba457f	0.022738216
15	0x3dbe5e5d	0.09295342
16	0xbc18dd48	-0.009330101
17	0xbd4ed010	-0.050491393
18	0xbc9d43fa	-0.019197453
19	0xbd6912c6	-0.05690267
20	0xbdfea7fa	-0.12434383
21	0x3d89a71d	0.067213275
22	0x3d6441e5	0.055726904
23	0xbd29ad14	-0.041424826
24	0xbd08d243	-0.033403646
25	0xbd79b205	-0.06096079
26	0x39b4ae07	0.00034461936
27	0x3d2381b8	0.03991863
28	0xbc4d7734	-0.012540627
29	0xbd3cf9ec	-0.04613678
30	0x3db57c97	0.08861654
31	0x3b46b393	0.0030319437
32	0x3dc7dd96	0.09759061
33	0x3d5e5096	0.05427607
34	0xbc0af7ec	-0.008481961
35	0xbd7ac4f2	-0.061222978
36	0xbd5648ac	-0.0523154
37	0x3d7d37d1	0.06182081
38	0xbd36b60b	-0.044607203
39	0xbbd88ebc	-0.006608812
40	0xbc00924d	-0.007847381
41	0x3da54006	0.08068852
42	0xbca63ebd	-0.020293588
43	0x3d626173	0.055268716
44	0xbd26ba50	-0.040705025
45	0xbd8dc4fd	-0.06922338
46	0x3d49245b	0.049106937
47	0x3dad68a9	0.08467228
48	0xbd0c07cf	-0.034187134
49	0x3d20c7cf	0.039253052
50	0xbd7a32cc	-0.0610836
51	0xbd77f575	-0.06053682
52	0xbdb793ae	-0.089637145
53	0x3c80b10a	0.015709419
54	0x3dc0ad88	0.094080985
55	0xbdc57fa2	-0.09643485
56	0x3db29282	0.087193504
57	0x3dc598bb	0.09648272
58	0xbda042aa	-0.07825215
59	0xbba19cf7	-0.0049320417
60	0xbdd7a21f	-0.10528969
61	0x3d57024d	0.05249243
62	0xbd9e92f4	-0.07742873
63	0x3d2fdf24	0.042937413
64	0xbc71162a	-0.014714757
65	0xbda51092	-0.08059801
66	0x3dd736a7	0.10508471
67	0x3d6a5aab	0.057215374
68	0x3cb2c48a	0.021822233
69	0x3dba47f5	0.09095756
70	0x3d3ac2c6	0.045595907
71	0xbd28b521	-0.041188363
72	0x3da9d470	0.08292472
73	0xbb9c3f15	-0.004768262
74	0x3dd7ec86	0.1054316
75	0x3d97fede	0.07421659
76	0x3b4ddee5	0.0031413373
77	0x3d2e1a0a	0.0425053
78	0x3dc13248	0.094334185
79	0x3d945a8f	0.07243835
80	0xbc8bee77	-0.017081482
81	0xbd96f9d6	-0.07371871
82	0xbd860547	-0.06543975
83	0x3cab509d	0.020912463
84	0xbdcf0382	-0.10108091
85	0xbd8abec9	-0.06774671
86	0x3dd57028	0.10421783
87	0xbd902ef3	-0.07040205
88	0x3d115449	0.03548077
89	0x3dafe903	0.08589365
90	0xbd2c6809	-0.042091403
91	0x3d7dfb95	0.062007505
92	0xbd47afd7	-0.04875168
93	0x3d8b6b66	0.06807594
94	0xbd861c74	-0.06548396
95	0x3c5e5f41	0.013572515
96	0xbd066950	-0.032815278
97	0x3dae7451	0.08518279
98	0x3d94b130	0.07260358
99	0x3cecc32d	0.02890166
100	0x3b38fc50	0.0028226562
101	0xbdb1c135	-0.086794294
102	0x3cbea221	0.023270668
103	0xbdb9c514	-0.09070793
104	0x3d7fb64d	0.062429715
105	0xbc9f0434	-0.019411184
106	0x3d697e02	0.057004936
107	0xbd7e2825	-0.062050004
108	0x3da9ff49	0.08300645
109	0xbc906fa0	-0.017631352
110	0xbd941be9	-0.07231886
111	0x3d432965	0.0476469
112	0x3da94670	0.08265388
113	0xbd49bde7	-0.04925337
114	0x3dc05319	0.093908496
115	0x3d35b1d1	0.044359032
116	0xbc335bcb	-0.010947178
117	0x3ccbd8fa	0.024883736
118	0x3c7b21e9	0.015327909
119	0x3d77f8fe	0.06054019
120	0xbd803f0a	-0.06262024
121	0xbde51e2e	-0.11187397
122	0x3d789ac9	0.06069449
123	0xbd983d69	-0.07433588
124	0x3d312ebe	0.043257467
125	0xbd227692	-0.03966386
126	0x3d0c2ffa	0.03422544
127	0xbc24e25b	-0.010063733
128	0x3d02983b	0.03188346
129	0x3c43e762	0.011957021
130	0x3d8099b7	0.06279319
131	0xbd8b3fd0	-0.06799281
132	0x3dcdf7c6	0.10057025
133	0xbca23310	-0.01979974
134	0x3dc8d24c	0.09805736
135	0x3dbb3077	0.09140103
136	0xbd875cb1	-0.06609476
137	0x3cb28865	0.021793554
138	0x3d605af2	0.054774232
139	0x3d93a619	0.07209415
140	0x3bff0760	0.0077828616
141	0x3dd1e27e	0.10248278
142	0x3d61d968	0.055138975
143	0xbdb2d9d0	-0.08732951
144	0x3d48d14d	0.04902773
145	0x3d4ce685	0.050024528
146	0x3ddc1626	0.10746412
147	0xbd396031	-0.04525775
148	0xbd478f63	-0.04872073
149	0x3d80801d	0.06274436
150	0x3d292a21	0.041299943
151	0x3d8c8d69	0.06862909
152	0xbdb06122	-0.086122766
153	0xbd179691	-0.037008826
154	0xbd9a84e5	-0.07544879
155	0x3db4d122	0.088289514
156	0x3dbbe625	0.09174756
157	0x3c03014b	0.007995914
158	0x3d08799e	0.03331911
159	0xbd991815	-0.074752964
160	0xbdd74d35	-0.10512773
161	0xbca26f60	-0.019828498
162	0x3dd4d0f9	0.10391421
163	0xbcd2be4d	-0.025725508
164	0xbd02d402	-0.031940468
165	0xbc19594e	-0.009359671
166	0x3b016882	0.001974613
167	0x3d83c26b	0.06433567
168	0x3d76dd18	0.060269445
169	0x3dbf37a0	0.093367815
170	0x3d7d41d1	0.061830346
171	0xbd8db231	-0.06918753
172	0xbdc692e1	-0.09695984
173	0xbcb3d660	-0.021952808
174	0x3d0fb67c	0.03508614
175	0x3d6f4a93	0.05842073
176	0xb9fc5545	-0.00048128716
177	0x3d4c267f	0.0498414
178	0xbd7e6cc0	-0.06211543
179	0xbd460406	-0.04834368
180	0xbde53cbe	-0.11193226
181	0xbd352865	-0.044227976
182	0x3ce76260	0.028245151
183	0x3d1320af	0.03591984
184	0x3d526084	0.051361576
185	0xbcebf0c3	-0.028801328
186	0xbde321bf	-0.11090421
187	0xbc67b971	-0.014143334
188	0xbd18edb1	-0.037336055
189	0xbdab9882	-0.08378698
190	0x3d8961fb	0.067081414
191	0xbc136d7a	-0.008998269
192	0xbc7fffd1	-0.015624956
193	0x3ceade74	0.028670527
194	0xbcee4f9f	-0.0290907
195	0xbd81dea0	-0.063412905
196	0x3cada51c	0.021196894
197	0xbd334813	-0.043769907
198	0xbcbf54ad	-0.023355806
199	0xbd735a27	-0.059412148
200	0x3d680af2	0.056651063
201	0x3b42c64b	0.0029720243
202	0xbdc0aec4	-0.09408334
203	0x3d856bbc	0.06514689
204	0x3ccb244f	0.024797587
205	0xbd68c83c	-0.056831583
206	0x3d449168	0.047990233
207	0xbd350a97	-0.044199552
208	0xbcb2a122	-0.02180535
209	0xbd76c035	-0.060241897
210	0xbc0b50be	-0.008503137
211	0xbcffac52	-0.031210098
212	0xbc5b2d7e	-0.013377545
213	0x3de79810	0.113083005
214	0x3d743d6c	0.05962889
215	0x3c5ca7be	0.013467727
216	0x3d4f0a9c	0.050547227
217	0x3cc454ba	0.023966182
218	0x3dac45e4	0.08411768
219	0x3dea3686	0.11436181
220	0x3cd864e8	0.026415303
221	0x3d9c45b0	0.07630479
222	0xbd1be4db	-0.03806005
223	0x3cbeb8e0	0.023281515
224	0x3db634b2	0.088967696
225	0x3d4e5ad7	0.0503796
226	0x3ccdc46a	0.025118072
227	0x3d478018	0.048706144
228	0x3daa7c24	0.08324459
229	0x3d8117b6	0.063033506
230	0xbd1941f7	-0.037416425
231	0x3ad97b20	0.001659248
232	0xbb7c0034	-0.003845227
233	0xbd377c6f	-0.044796403
234	0xbdd20eb4	-0.10256711
235	0xbd842b43	-0.06453564
236	0xbdf22700	-0.11823845
237	0xbc6844a3	-0.0141765205
238	0xbd5809a4	-0.05274357
239	0xbd8b424f	-0.06799757
240	0x3dd7be53	0.10534348
241	0xbd1b4fd5	-0.03791793
242	0xbdb8d160	-0.0902431
243	0xbd8ee5a7	-0.069773965
244	0xbd87b397	-0.06626051
245	0xbcd8f702	-0.02648497
246	0x3c9c37c9	0.01906957
247	0xbd874aed	-0.06606088
248	0xbdb54131	-0.08850325
249	0xbd10c5a4	-0.035344735
250	0x3df180dc	0.11792156
251	0xbd5d9550	-0.054097474
252	0xbd80e7b0	-0.06294191
253	0x3cea3cdd	0.028593475
254	0x3dd1bffc	0.10241696
255	0xbcbb6b9a	-0.022878457

feature_extractor.blocks.0.attn.proj.bias f4 [64]
0	0xbd20b367	-0.03923359
1	0xbd40085b	-0.04688297
2	0xbd2f4960	-0.042794585
3	0x3dcd50de	0.1002519
4	0xbc206d8f	-0.009791746
5	0x3db4b0c6	0.08822779
6	0xbb736902	-0.0037141447
7	0x3b2dd408	0.0026524086
8	0x3df03710	0.11729252
9	0x3b5fe453	0.0034163191
10	0xbde739c2	-0.11290313
11	0x3d8de89c	0.06929132
12	0x3b8449a8	0.004037101
13	0xbdf5fe66	-0.12011413
14	0x3d8daea8	0.06918079
15	0x3d9e64b0	0.07734048
16	0x3d340e04	0.04395868
17	0xbde7be58	-0.11315602
18	0x3ca8327b	0.020531883
19	0xbd3f1dce	-0.046659283
20	0x3d6a8f79	0.057265732
21	0xbc4c7364	-0.012478683
22	0x3d0434b7	0.032276835
23	0xbbc47135	-0.0059949406
24	0x3d43989e	0.04775297
25	0xbcc44a10	-0.023961097
26	0xbdb0afb5	-0.086272635
27	0x3d6aeefe	0.057356827
28	0x3da244c3	0.079232715
29	0xbdacedaf	-0.08443772
30	0xbd99a59d	-0.07502291
31	0xbca28568	-0.019839004
32	0x3dd242b2	0.10266627
33	0xbd8ad01d	-0.06777976
34	0x3c84208e	0.016128805
35	0x3d701320	0.05861199
36	0xbdb2a206	-0.0872231
37	0x3d5f482b	0.054512184
38	0x3c417cc0	0.011809528
39	0xbd150dc8	-0.036390096
40	0x3d9581d4	0.073001534
41	0x3c977465	0.018488118
42	0x3d3d9977	0.046288934
43	0x3d4d305f	0.05009496
44	0x3a91c6d1	0.0011121874
45	0xbcb653fa	-0.02225684
46	0x3d8d79c9	0.06907994
47	0xbd78876f	-0.060676035
48	0xbde7db46	-0.1132112
49	0x3d036905	0.032082576
50	0x3a1b9226	0.00059345586
51	0x3dc203db	0.094733916
52	0xbcac58d2	-0.021038447
53	0x3da89332	0.082312
54	0xbcae73e9	-0.021295505
55	0x3cf528cd	0.029926682
56	0x3df086e0	0.11744475
57	0x3c299385	0.010350113
58	0x3cac1d7d	0.021010155
59	0xbc95e278	-0.018296465
60	0xbabeafbc	-0.0014548223
61	0xbc7712bd	-0.015080151
62	0x3cb8f3be	0.022577163
63	0x3cf89930	0.030346483

feature_extractor.blocks.0.norm2.weight f4 [64]
0	0x3f5248a4	0.8214209
1	0x3f4d3817	0.8016371
2	0x3f555cb8	0.833446
3	0x3f4ab25d	0.7917841
4	0x3f59dbf5	0.8510125
5	0x3f4df8d2	0.80457795
6	0x3f63bfed	0.8896473
7	0x3f5336f7	0.82505745
8	0x3f5bb3e4	0.85821366
9	0x3f4f860f	0.8106393
10	0x3f494168	0.78615427
11	0x3f5c01bb	0.8594014
12	0x3f4b6361	0.79448515
13	0x3f526ea4	0.82200074
14	0x3f54bace	0.8309754
15	0x3f488d16	0.7834028
16	0x3f5a4e2b	0.85275525
17	0x3f5b4db1	0.8566542
18	0x3f5a1bb0	0.851985
19	0x3f53c2df	0.82719225
20	0x3f4f665e	0.81015575
21	0x3f44b8c1	0.7684441
22	0x3f533a41	0.82510763
23	0x3f4c074f	0.7969865
24	0x3f52adc9	0.82296425
25	0x3f54afc5	0.83080703
26	0x3f546a73	0.8297493
27	0x3f55bc9a	0.8349091
28	0x3f4cb5a7	0.7996468
29	0x3f5d668a	0.8648459
30	0x3f53cd1b	0.8273484
31	0x3f48a396	0.7837461
32	0x3f4a821b	0.79104775
33	0x3f5abad1	0.8544131
34	0x3f476c9c	0.779001
35	0x3f51413a	0.8174015
36	0x3f5818f0	0.8441305
37	0x3f593f98	0.8486266
38	0x3f4f83e1	0.81060606
39	0x3f46ebc9	0.7770353
40	0x3f598a72	0.84976876
41	0x3f5204db	0.8203866
42	0x3f52eab0	0.82389355
43	0x3f4826ed	0.78184396
44	0x3f52454c	0.8213699
45	0x3f4fa4db	0.81110924
46	0x3f52bdb0	0.8232069
47	0x3f451b73	0.7699501
48	0x3f5a5fb9	0.8530231
49	0x3f4822de	0.78178203
50	0x3f56f149	0.8396192
51	0x3f5ac26f	0.8545293
52	0x3f59bcf6	0.85053957
53	0x3f533974	0.8250954
54	0x3f4bf051	0.7966357
55	0x3f5b42c9	0.8564878
56	0x3f571eef	0.84031576
57	0x3f5c3887	0.86023754
58	0x3f586f8a	0.84545195
59	0x3f4efa63	0.8085081
60	0x3f54b3ec	0.8308704
61	0x3f5483e7	0.83013767
62	0x3f5351fc	0.82546973
63	0x3f517cd5	0.81831104

feature_extractor.blocks.0.norm2.bias f4 [64]
0	0xbc2a4a67	-0.010393715
1	0x3c1e4e5e	0.009662239
2	0x3b987253	0.0046523004
3	0xbb9469eb	-0.004529228
4	0x3c32112d	0.010868353
5	0xbc6c9b54	-0.01444133
6	0x3a541ed3	0.00080917514
7	0xbc514cd0	-0.012774661
8	0x3a3664dc	0.0006957778
9	0x3c752f17	0.01496484
10	0xbbc3d9a5	-0.005976873
11	0xbb61cb4b	-0.0034453447
12	0x3c272452	0.0102015305
13	0xbc0b1373	-0.008488524
14	0xbb68624b	-0.0035458978
15	0x3b436355	0.0029813845
16	0xbb27052e	-0.0025485265
17	0x3c602328	0.013680257
18	0x3c25af88	0.010112651
19	0xbbe634e4	-0.007025348
20	0x3c0f65c8	0.008752294
21	0xbc9ead75	-0.01936982
22	0xbbdf727c	-0.0068190675
23	0xba574106	-0.00082112884
24	0xbc0a64d3	-0.00844689
25	0x3b7083ab	0.0036699574
26	0x3bb2b950	0.00545422
27	0xbac4c1d2	-0.0015011376
28	0xbab34fb4	-0.001368037
29	0x3b552f44	0.0032529393
30	0xba4db8e3	-0.00078476797
31	0x3b1386a4	0.0022510672
32	0x3c7760fa	0.015098805
33	0xbbd3dca6	-0.0064655123
34	0xbb280263	-0.0025636188
35	0x3b6d4464	0.0036204094
36	0xbc00fae8	-0.007872321
37	0x3c363af1	0.011122451
38	0xbc605953	-0.013693172
39	0x3ce2430d	0.027619863
40	0x3b843851	0.0040350338
41	0xbc64f0d7	-0.013973436
42	0x3ba64b67	0.0050749066
43	0x3b82bca6	0.003989774
44	0x3b86bc69	0.0041118157
45	0x3a2334b7	0.00062258117
46	0x3c0f6147	0.00875122
47	0x3c5680dd	0.013092247
48	0x3be9fdc5	0.0071408474
49	0x3c7af69c	0.015317585
50	0xbc1679a1	-0.009184272
51	0x3bd5a5ff	0.0065200324
52	0x3b734f63	0.0037126176
53	0x3bd9f92a	0.006652017
54	0x3bfc8caa	0.007707198
55	0x3c68b8f2	0.014204251
56	0xbbc0f09a	-0.005888057
57	0xbbc65bea	-0.0060534375
58	0xbbcbe96f	-0.006222896
59	0xbb04a4ca	-0.0020239823
60	0xbb28041e	-0.002563722
61	0x3a651c03	0.0008739831
62	0x3b068b89	0.0020529947
63	0xbc6a6e1d	-0.01430848

feature_extractor.blocks.0.mlp.0.weight f4 [256, 64]
0	0x3d28971b	0.04115973
1	0x3c20a646	0.009805268
2	0xbcd5844c	-0.02606406
3	0x3d50b3c8	0.050952703
4	0xbd9a63c1	-0.07538558
5	0xbdb6d246	-0.08926825
6	0x3caabc26	0.02084167
7	0xbd33c0af	-0.04388493
8	0x3c31322e	0.010815186
9	0xbcaca429	-0.021074371
10	0x3d8eccae	0.06972633
11	0x3d75b570	0.059987485
12	0xbcc741d5	-0.024323383
13	0xbb108f21	-0.0022057968
14	0xbd7a5f27	-0.0611259
15	0x3d33296d	0.04374068
16	0x3d5b18eb	0.05349056
17	0x3c8378f4	0.016048886
18	0x3db672ee	0.0890864
19	0xbc980a41	-0.018559577
20	0x3c59112d	0.013248724
21	0xbd855167	-0.06509667
22	0xbca5f5ef	-0.020258872
23	0x3b7b424f	0.0038339084
24	0x3bcf4efc	0.0063265543
25	0xbd7734e4	-0.060353175
26	0xbac8e59f	-0.0015327221
27	0xbd9c7225	-0.07638959
28	0xbbd1a78b	-0.0063981465
29	0xbcc2af62	-0.02376527
30	0xbb068be0	-0.002053015
31	0x3d34a3d3	0.044101547
32	0x3bbf7f32	0.0058440203
33	0xbb46fa03	-0.003036142
34	0x3d8d24c3	0.06891777
35	0xbd4f24c2	-0.050572164
36	0x3d0f4cde	0.034985416
37	0x3b99836a	0.004684855
38	0xbd004652	-0.031317063
39	0xbc9106ca	-0.017703433
40	0xbd188c56	-0.03724321
41	0x3d3a8a31	0.045541946
42	0xbd0df90f	-0.03466135
43	0x3d6cec2d	0.057842422
44	0xbcd5c8c1	-0.026096703
45	0x3daa3130	0.08310163
46	0x3d6cd877	0.057823624
47	0xbd9481de	-0.07251333
48	0x3d94ac51	0.07259429
49	0xbc7cbaa2	-0.015425356
50	0xbd0484f8	-0.03235337
51	0x3d2ca482	0.042149074
52	0xbcabbb29	-0.020963268
53	0xbd75ca9c	-0.060007676
54	0x3c32a579	0.01090371
55	0xbd5eb487	-0.054371383
56	0x3d0eb928	0.034844548
57	0xbcad9a0b	-0.021191617
58	0x3c02c15c	0.007980671
59	0xbbc48141	-0.0059968536
60	0x3da1becd	0.078977205
61	0x3cae1f8a	0.021255273
62	0x3c4f5bd1	0.012656168
63	0xbdb3a37b	-0.08771416
64	0x3d82ea3e	0.063923344
65	0xbcd320d8	-0.025772497
66	0x3db3df38	0.0878281
67	0x3bedcd85	0.007257166
68	0x3d477c77	0.048702683
69	0x3d163890	0.036675036
70	0xbd9bd10d	-0.07608233
71	0x3d51e8e8	0.051247507
72	0x3c11420b	0.0088658435
73	0xbd7d000a	-0.061767615
74	0x3d231814	0.039817885
75	0xbdab09ee	-0.08351503
76	0xbd183343	-0.037158262
77	0x3d88f73f	0.066877834
78	0xbbda927f	-0.0066702957
79	0x3cf543f3	0.029939627
80	0xbd7af48c	-0.061268374
81	0xbd7aa902	-0.061196335
82	0x3cfde337	0.030992134
83	0xbc6c1e61	-0.01441154
84	0x3ce4b110	0.027916461
85	0x3cac31f4	0.021019913
86	0xbc596a15	-0.013269921
87	0x3cf3e330	0.029771417
88	0xbdd3bc9f	-0.10338711
89	0x3d988beb	0.07448562
90	0x3daf048c	0.08545789
91	0xbd3d13e0	-0.046161532
92	0x3cb6b965	0.0223052
93	0xbba59b13	-0.0050538867
94	0x3d418385	0.047244567
95	0x3d0bbffe	0.034118645
96	0x3d350a7a	0.044199444
97	0xbb94be42	-0.004539282
98	0x3d92ce3d	0.07168243
99	0x3d910681	0.07081319
100	0xbd66a122	-0.056306012
101	0xbd1076fb	-0.03526972
102	0xbd9b6cee	-0.07589136
103	0xbd6f4367	-0.05841389
104	0x3d3b3f76	0.045714818
105	0x3c3a0450	0.011353567
106	0x3cac4ee8	0.02103372
107	0x3d920d81	0.07131482
108	0x3dc0287c	0.09382722
109	0xbbbf1936	-0.005831863
110	0x3d2d07a6	0.042243622
111	0xbd7e6540	-0.06210828
112	0xbccb4288	-0.024811998
113	0x3bb51de9	0.005527247
114	0xbd811240	-0.06302309
115	0xbcd8e111	-0.026474508
116	0xbcaa5fc2	-0.020797614
117	0xbd03a795	-0.03214224
118	0x3d2c493d	0.042062033
119	0x3d8c4c5f	0.06850504
120	0x3ae66b8b	0.0017579658
121	0x3c9c26b7	0.01906143
122	0xbcd87ab4	-0.026425697
123	0x3da5c002	0.08093263
124	0xbdacb51e	-0.08432983
125	0x3d709aa8	0.05874124
126	0xbda37431	-0.07981146
127	0xbd89d35b	-0.06729766
128	0x3d8031f3	0.06259527
129	0x3d2f215f	0.042756435
130	0xbd084983	-0.03327323
131	0x3d4c1272	0.04982228
132	0xbd9f648e	-0.07782851
133	0x3c8a4aa4	0.016881295
134	0xbca341b5	-0.019928792
135	0xbd610ee3	-0.054945838
136	0xbcfc6ab3	-0.030812597
137	0x3db0d627	0.08634596
138	0x3d4c52bf	0.0498836
139	0x3d194264	0.03741683
140	0x3ac37c9c	0.0014914456
141	0x3cfb6d30	0.030691713
142	0x3d21f929	0.03954426
143	0xbd7375e3	-0.059438597
144	0x3cbd742e	0.023126688
145	0x3b292c7f	0.0025813875
146	0xbd1a6c73	-0.03770108
147	0xbd2fa274	-0.042879537
148	0x3d7fbe9c	0.06243764
149	0xbd894ebb	-0.0670447
150	0x3c1ac9d9	0.009447538
151	0xbcd52953	-0.026020681
152	0xbc935312	-0.017983947
153	0x3d36314d	0.04448061
154	0x3d08f79c	0.033439264
155	0xbd673dd1	-0.056455437
156	0xbd749cfc	-0.059720024
157	0xbd09febd	-0.033690203
158	0xbc8f1912	-0.01746801
159	0x3ce2dead	0.02769407
160	0x3cbaaafd	0.022786612
161	0x3d3afc06	0.045650505
162	0x3aa2421f	0.0012379325
163	0xbbb49088	-0.0055103935
164	0xbd2f861b	-0.042852502
165	0x3cdc74c0	0.02691114
166	0xbcb7a6fa	-0.022418488
167	0xbcedb431	-0.029016586
168	0x3b8b3cfe	0.004249214
169	0xbcb0a8d5	-0.02156488
170	0xbd3ced2a	-0.046124615
171	0xbc99da15	-0.018780747
172	0x3d73ddeb	0.05953781
173	0x3d3f47aa	0.046699204
174	0x3d3592fe	0.044329636
175	0x3d127a07	0.035760906
176	0x3d0c0431	0.034183685
177	0x3d0da5b3	0.03458185
178	0x3c3dbb56	0.011580309
179	0x3d5c142b	0.05373017
180	0xbd0fefed	-0.03514092
181	0xbcd0a7ae	-0.02547058
182	0xbd225a98	-0.03963718
183	0xbd859867	-0.06523209
184	0xbbe0bec0	-0.0068586767
185	0x3d453bf9	0.048152898
186	0x3d998290	0.07495606
187	0x3ccc628b	0.024949333
188	0xbc4ce634	-0.012506057
189	0xbc803460	-0.015649974
190	0x3d75b63a	0.059988238
191	0xbd831864	-0.064011365
192	0x3cd5d474	0.026102282
193	0xbd0d3efe	-0.034483902
194	0xbbe10e2d	-0.006868145
195	0x3d3ba17f	0.04580831
196	0x3d86d49e	0.06583522
197	0x3c8cdf36	0.017196279
198	0xbd9cc0fc	-0.07653996
199	0xbbdd0cea	-0.0067459242
200	0xbbb2547b	-0.0054421998
201	0xbd981e23	-0.07427623
202	0x3c3c4f46	0.01149351
203	0x3b954612	0.004555472
204	0xbbc91e5c	-0.0061376523
205	0x3c8d1a02	0.017224316
206	0x3d80210f	0.062563054
207	0xbd6e7aa6	-0.058222435
208	0xbd634318	-0.055483907
209	0x3d97d7ce	0.07414208
210	0xbd2c3c69	-0.0420498
211	0xbd18b274	-0.03727956
212	0x3d8f3a97	0.06993597
213	0x3d808e44	0.06277135
214	0x3d882741	0.06648112
215	0x3b17eeb3	0.0023183047
216	0x3da27100	0.07931709
217	0x3c9d8f16	0.019233268
218	0xbd843f6c	-0.06457409
219	0xbc5f8cec	-0.013644438
220	0xbc96b158	-0.018395111
221	0x3bc73096	0.00607879
222	0x3c808926	0.015690397
223	0xbd173928	-0.036919743
224	0xbcc8db6c	-0.024518691
225	0xbd48a3ec	-0.048984453
226	0xbc2bf71f	-0.01049593
227	0xbd5eb0ca	-0.054367818
228	0x3d4b2fb1	0.04960603
229	0xbbe9bffa	-0.007133481
230	0x3d4f428f	0.050600585
231	0xbd480169	-0.04882947
232	0xbc6a6fb1	-0.014308856
233	0x3d7cbcc2	0.06170345
234	0x3b915ff2	0.0044364864
235	0xbc2e6a33	-0.010645437
236	0xbd575ad0	-0.05257684
237	0xbd029585	-0.031880874
238	0xbc792435	-0.015206386
239	0xbd8ef3cb	-0.069800936
240	0xbc975f85	-0.018478164
241	0x3d953872	0.07286157
242	0x3d83b1db	0.064304076
243	0x3c8f15ee	0.017466512
244	0xbc5a42f2	-0.013321625
245	0x3d9664c6	0.0734344
246	0x3d69c903	0.057076465
247	0xbdae38a3	-0.08506896
248	0xbd19771d	-0.03746711
249	0x3c747476	0.014920345
250	0x3ab5f064	0.0013880846
251	0x3d7f36f3	0.062308263
252	0xbd9503b2	-0.072760954
253	0x3c528820	0.012849838
254	0x3aab659b	0.0013076545
255	0x3ce83c93	0.028349197
